Loaded model from disk
[[… Saved model to disk
Saved the model at:  ProtobufNetworks/ACASXU_2_9_0_corrected.pb

------------------Model Summary------------------

Model: "train_model"
_________________________________________________________________
 Layer (type)                Output Shape              Param #   
=================================================================
 input (InputLayer)          [(None, 5)]               0         
                                                                 
 hidden1 (Dense)             (None, 50)                300       
                                                                 
 hidden2 (Dense)             (None, 50)                2550      
                                                                 
 hidden3 (Dense)             (None, 50)                2550      
                                                                 
 hidden4 (Dense)             (None, 50)                2550      
                                                                 
 hidden5 (Dense)             (None, 50)                2550      
                                                                 
 hidden6 (Dense)             (None, 50)                2550      
                                                                 
 output (Dense)              (None, 5)                 255       
                                                                 
=================================================================
Total params: 13,305
Trainable params: 13,305
Non-trainable params: 0
_________________________________________________________________
None

------------------SubModel Summary------------------

Model: "submodel-a5a50"
_________________________________________________________________
 Layer (type)                Output Shape              Param #   
=================================================================
 input (InputLayer)          [(None, 5)]               0         
                                                                 
 hidden1 (Dense)             (None, 50)                300       
                                                                 
 hidden2 (Dense)             (None, 50)                2550      
                                                                 
 hidden3 (Dense)             (None, 50)                2550      
                                                                 
 hidden4 (Dense)             (None, 50)                2550      
                                                                 
 hidden5 (Dense)             (None, 50)                2550      
                                                                 
 hidden6 (Dense)             (None, 50)                2550      
                                                                 
=================================================================
Total params: 13,050
Trainable params: 13,050
Non-trainable params: 0
_________________________________________________________________
None

------------------Last Layer Summary------------------

Model: "lastlayer-ef31a"
_________________________________________________________________
 Layer (type)                Output Shape              Param #   
=================================================================
 ll_input-8a32a (InputLayer)  [(None, 50)]             0         
                                                                 
 output (Dense)              (None, 5)                 255       
                                                                 
=================================================================
Total params: 255
Trainable params: 255
Non-trainable params: 0
_________________________________________________________________
None

------------------------------------------------------

Saved the model at:  ProtobufNetworks/last.layer.ACASXU_2_9_0_corrected.pb
…
