Model: "sequential"
_________________________________________________________________
 Layer (type)                Output Shape              Param #   
=================================================================
 clf/c1 (Conv2D)             (None, 64, 64, 16)        448       
                                                                 
 clf/c2 (Conv2D)             (None, 64, 64, 16)        2320      
                                                                 
 clf/p1 (MaxPooling2D)       (None, 32, 32, 16)        0         
                                                                 
 clf/c3 (Conv2D)             (None, 32, 32, 16)        2320      
                                                                 
 clf/c4 (Conv2D)             (None, 32, 32, 16)        2320      
                                                                 
 clf/p2 (MaxPooling2D)       (None, 16, 16, 16)        0         
                                                                 
 clf/f1 (Flatten)            (None, 4096)              0         
                                                                 
 clf/d1 (Dense)              (None, 256)               1048832   
                                                                 
 clf/d2 (Dense)              (None, 10)                2570      
                                                                 
 clf_output (Activation)     (None, 10)                0         
                                                                 
=================================================================
Total params: 1058810 (4.04 MB)
Trainable params: 1058810 (4.04 MB)
Non-trainable params: 0 (0.00 Byte)
_________________________________________________________________
Train on 50000 samples
   32/50000 [..............................] - ETA: 2:52 - loss:
…
